model/logistic_weights.npz (npz, 12970 bytes, 2 tensors)

W f4 [3118]
0	0x3f821d6f	1.0165232
1	0x3f231775	0.6370767
2	0xbf297545	-0.66194564
3	0x3f2d438c	0.67681193
4	0x3ea25ed6	0.3171298
5	0x3e884869	0.26617745
6	0xbec28712	-0.37993675
7	0xbe6ae418	-0.22938573
8	0xbebc4c30	-0.36776876
9	0xbd80edce	-0.06295358
10	0x3e8fe029	0.28100708
11	0xbd94db1c	-0.07268354
12	0xbd6b6e4b	-0.05747823
13	0xbf0f1dd3	-0.55904883
14	0xbf02cc29	-0.51092774
15	0x3f9795e0	1.1842613
16	0xbc60ca48	-0.013720103
17	0xbf1771e0	-0.59158134
18	0x3eb0cc38	0.34530807
19	0x3f40739b	0.751764
20	0xbebc66fa	-0.36797315
21	0xbf9121b7	-1.1338414
22	0x3d49d0b5	0.049271304
23	0x3ebb9c73	0.366428
24	0x3e185a95	0.14878304
25	0xbeb09b06	-0.34493273
26	0xbf505901	-0.8138581
27	0xbdc79b58	-0.09746426
28	0xbe2abaa4	-0.1667276
29	0x3f321d1f	0.69575685
30	0x3dc9ad8b	0.09847554
31	0xbe323702	-0.17403796
32	0xbe7806dd	-0.24221368
33	0x3f0c080c	0.5469978
34	0xbe9272a7	-0.28603098
35	0xbb609ed8	-0.0034274366
36	0xbf4cf70d	-0.8006447
37	0xbf6e3327	-0.930468
38	0xbf1a9740	-0.6038704
39	0x3f73fa40	0.95303726
40	0xbdc3f678	-0.095684946
41	0x3f499353	0.78740424
42	0xbec38cc4	-0.38193333
43	0xbe803502	-0.25040442
44	0xbc0dbf5e	-0.0086515825
45	0x3ef19912	0.47187096
46	0xbf4232ba	-0.7585865
47	0xbf0c2b30	-0.547534
48	0xbf06ecbf	-0.52704996
49	0xbf177b11	-0.5917216
50	0xbfa27cdf	-1.2694358
51	0xbf18a0c0	-0.59620285
52	0x3ea8674b	0.32891306
53	0xbde98011	-0.1140138
54	0xbd4ba64c	-0.04971914
55	0x3ea90a1d	0.33015528
56	0xbc991ad4	-0.01868955
57	0x3da1953c	0.07889792
58	0xbe61bb6c	-0.22044152
59	0x3dfd7a79	0.123768754
60	0x3dfd7a79	0.123768754
61	0xbd111395	-0.035419066
62	0xbf0c2f87	-0.5476002
63	0x3da00452	0.07813324
64	0x3ea25ed6	0.3171298
65	0x3ef3d533	0.47623596
66	0x3ef3d533	0.47623596
67	0xbd32ef74	-0.04368539
68	0xbf8a3c45	-1.0799643
69	0xbf7241d6	-0.9463171
70	0xbe6c0ae1	-0.23051025
71	0xbfd0d2f2	-1.6314375
72	0xbec5e4eb	-0.38651213
73	0x3c5adde1	0.013358564
74	0xbe4298a6	-0.19003543
75	0xbed36033	-0.41284332
76	0x3db4d3f5	0.0882949
77	0x3f081e18	0.5317092
78	0x3dd37ab0	0.10326135
79	0x3d891ff9	0.066955514
80	0x3f0048f9	0.5011135
81	0xbeb654d3	-0.3561159
82	0x3f0a2cfd	0.53974897
83	0x3ea277cf	0.31732032
84	0xbf2b779b	-0.6697938
85	0xbf0ea4a8	-0.55719995
86	0xbf3c1729	-0.7347284
87	0x3ee1bb74	0.44088328
88	0xbe11f38c	-0.14253062
89	0x3cde7403	0.027154928
90	0xbfd66efc	-1.675262
91	0xbe95d82d	-0.29266492
92	0x3eec6885	0.46173492
93	0xbed47fff	-0.41503903
94	0x3d263364	0.040576354
95	0xbf7f5c5d	-0.9975031
96	0xbff73e38	-1.9315863
97	0xbf1d0e8c	-0.6135032
98	0x3c987389	0.018609779
99	0xbc290d59	-0.010318124
100	0x3ed5cdf6	0.41758698
101	0x3ed5cdf6	0.41758698
102	0x4005dd78	2.0916424
103	0x3e7ddd9c	0.24791569
104	0x3ecdf881	0.40228656
105	0x3e6cc0dd	0.23120447
106	0x3ef3d533	0.47623596
107	0x3eea8141	0.45801738
108	0x3ef3d533	0.47623596
109	0x3e87d982	0.26533133
110	0x3ed58c72	0.41708714
111	0x3c9b44a9	0.018953638
112	0xbe0e1627	-0.13875638
113	0x3ef3d533	0.47623596
114	0x3ef3d533	0.47623596
115	0x3f6cd1cd	0.9250763
116	0xbf16e03f	-0.5893592
117	0xbe3283df	-0.17433117
118	0x3ecd8429	0.40139893
119	0xbda31555	-0.07963053
120	0xbf677b11	-0.9042216
121	0xbe056144	-0.13025385
122	0x4006cab2	2.1061215
123	0xbf238599	-0.6387573
124	0xbf564e54	-0.8371327
125	0xbe8b2da5	-0.27183262
126	0xbe15de78	-0.14635646
127	0x3ed31301	0.41225436
128	0xbb1626e4	-0.0022911364
129	0xbe99bbf5	-0.30026212
130	0xbec832c8	-0.39101243
131	0x3e42537c	0.1897716
132	0xbeb4a99a	-0.35285646
133	0x3eb1f0e0	0.34754086
134	0xbe6b6775	-0.22988684
135	0xbf11c18d	-0.5693596
136	0xbe804c8a	-0.25058395
137	0xbde98011	-0.1140138
138	0xbe0c6579	-0.13710584
139	0x3e4df0da	0.20111409
140	0xbd44ebeb	-0.04807655
141	0xbe614fd7	-0.22003113
142	0x3ec8d51b	0.39225087
143	0xbeec9712	-0.46209008
144	0xbe6a880e	-0.22903463
145	0xbf0b4f24	-0.54417634
146	0x3f2bbec2	0.6708795
147	0xbdd89f59	-0.10577268
148	0xbd855194	-0.065097004
149	0xbe7b72a6	-0.24555454
150	0x3dca4299	0.09875984
151	0x3ea52d72	0.32261235
152	0xbd52175b	-0.051291805
153	0x3eaf4048	0.3422873
154	0xbd8a7594	-0.067607075
155	0x3eef8cba	0.46787053
156	0xbcd62821	-0.026142182
157	0xbf07d6e7	-0.5306229
158	0xbf749143	-0.9553415
159	0x3e25e101	0.16199113
160	0xbed63e00	-0.41844177
161	0x3f9905fb	1.195495
162	0xbee16fe8	-0.4403069
163	0x3ea739aa	0.32661182
164	0xbe852383	-0.26003656
165	0xc000534d	-2.0050843
166	0x3fd2a2bc	1.6455913
167	0xbf394167	-0.7236542
168	0x3dbd31b4	0.09237996
169	0xbec203b1	-0.3789344
170	0xbea8d833	-0.32977447
171	0xbd15b7ed	-0.03655236
172	0x3ec32199	0.3811157
173	0xbfd0c9fd	-1.6311642
174	0xbec10955	-0.37702432
175	0xbeeaa388	-0.4582789
176	0xbf265793	-0.6497738
177	0x3f54731e	0.82988155
178	0xbe40eaf7	-0.18839632
179	0x3f61ee06	0.8825382
180	0x3f7668d9	0.96253735
181	0x3e261ed6	0.162227
182	0x3aece47d	0.0018073466
183	0x3e1bf406	0.15229806
184	0x3da3d8c8	0.08000332
185	0xbf3e1040	-0.74243546
186	0x3f08cf26	0.53441083
187	0xbfe152ef	-1.7603434
188	0x3cc36c33	0.023855304
189	0xbee4a854	-0.44659674
190	0x3f6e952a	0.93196356
191	0x3e93d1b4	0.28870928
192	0xbf063393	-0.52422446
193	0x3e9a2c56	0.3011195
194	0xbf13073c	-0.57432914
195	0x3d1f5be4	0.038905993
196	0x3f082c7f	0.53192896
197	0x402cb3d5	2.698476
198	0xbdd10963	-0.102068685
199	0xbdd10963	-0.102068685
200	0x3efacf86	0.48986453
201	0x3eddf381	0.4334984
202	0x3eddf381	0.4334984
203	0xbf294eee	-0.6613606
204	0x3fab69f6	1.3391712
205	0xbf141f10	-0.578599
206	0xbcf70a00	-0.030156136
207	0xbed70768	-0.41997838
208	0x3f1fdbea	0.6244494
209	0x3f44a892	0.7681972
210	0xbef8fb40	-0.4862919
211	0x3f6f9c4f	0.93597883
212	0x3f391346	0.72295034
213	0x3f2504e3	0.6446058
214	0x3ed776d6	0.42082852
215	0xbeb5b99d	-0.35493174
216	0x3ed011b2	0.406385
217	0xbe13f76e	-0.14449856
218	0xbe13f76e	-0.14449856
219	0x3fa8086c	1.312757
220	0x3f0a3506	0.5398716
221	0x3ee63cfb	0.449684
222	0xbf6d900e	-0.92797935
223	0x3ef135c6	0.47111338
224	0xbeb22bd8	-0.34799075
225	0xbf4ebabc	-0.80753684
226	0xbef5ad15	-0.47983614
227	0x3d0944b7	0.033512797
228	0x3fad0404	1.351685
229	0xbef0c2ab	-0.4702352
230	0xbee4e64c	-0.44706953
231	0xbdba7896	-0.09105031
232	0xbe77a146	-0.24182615
233	0xbf0c11ae	-0.5471448
234	0xbf717fb9	-0.94335514
235	0x3fc6937f	1.5513762
236	0x3d0466c1	0.032324556
237	0x3e690f57	0.22759758
238	0x3e9f99c1	0.31171992
239	0xbd7f62aa	-0.062349953
240	0x3d2c09f9	0.0420017
241	0xbe8790bf	-0.2647762
242	0xbf7fec85	-0.99970275
243	0xbf207f10	-0.6269388
244	0xbf75a7e2	-0.95959294
245	0xbf6219af	-0.8832044
246	0xbf161df5	-0.5863946
247	0xbc290d59	-0.010318124
248	0x3fba2a22	1.4544108
249	0xbfd64c52	-1.6742041
250	0xbf5209fb	-0.8204648
251	0x3f2a1e79	0.6645275
252	0xbf05846e	-0.52155197
253	0xbf98af3e	-1.192848
254	0xbf21e99f	-0.632471
255	0xbfa7017a	-1.3047326

b f8 []
0	0xbfe23cac6751e17c	-0.5699064271894225
