model/svm_weights.npz (npz, 12970 bytes, 2 tensors)

W f4 [3118]
0.3850272 0.19088174 -0.35343856 0.23375832 0.17975353 0.07427911 -0.082722895 -0.23540525
-0.21117201 0.017072089 0.08606895 -0.021172753 -0.0137548065 -0.20688966 -0.15749167 0.2502094
-0.033084895 -0.16968569 0.08228601 0.06413886 -0.172871 -0.2998065 0.3514723 0.10819791
8.002399e-17 -0.121975 -0.04870928 0.02396514 0.0013171551 0.16237701 0.02349213 0.019220386
-0.005841452 0.18573393 -0.055999197 -0.047120742 -0.2351603 -0.24604179 -0.20123295 0.33906233
-0.029840415 0.20708652 -0.16220717 -0.11210705 -0.066837326 0.10646153 -0.403711 -0.25835407
-0.3798119 -0.26518545 -0.78630155 -0.24072428 0.027685892 -0.023390645 -0.038110286 0.08934549
-0.03235758 -0.01048102 -0.1054936 0.05597069 0.05597069 -0.051720876 -0.13083735 0.13470025
0.17975353 0.19578937 0.19578937 -0.04975869 -0.5236251 -0.46553496 -0.055428192 -0.6804215
-0.09116736 0.04011098 -0.011947717 0.02173251 0.008984377 0.14200065 0.017211894 0.021644939
0.24248157 -0.049439494 0.19893552 0.053102203 -0.36483675 -0.15117426 -0.19838513 0.029756336
-0.081873424 0.0027867435 -0.67142504 -0.12094509 0.17396654 -0.2054716 0.033081234 -0.26882166
-0.8332687 -0.32313326 -0.022773366 -0.008875526 0.08844466 0.08844466 0.9953015 0.13688272
0.16548099 0.11374075 0.19578937 0.18842365 0.19578937 0.109776326 0.15434618 0.0064043636
-0.018075835 0.19578937 0.19578937 0.20261347 -0.27759734 -0.08272186 0.13360596 0.0637662
-0.18767686 -0.02610562 0.7491008 -0.23650564 -0.43716693 -0.09251273 -0.026078818 0.014040607
-0.009697181 -0.032409973 -0.16517472 0.04265423 -0.04024073 0.11021976 -0.09590717 -0.15989238
-0.1592282 -0.023390645 -0.07569746 0.009406424 -0.0028375925 -0.14178011 0.11289466 -0.11878183
-0.11430855 -0.15346932 0.13832632 -0.058934987 -0.06960172 -0.13873762 -0.030938655 0.16013648
-0.046289492 0.08018418 0.0036669215 0.10969927 -0.0078167925 -0.21971545 -0.40453303 0.06519667
-0.12735875 0.23191461 -0.16735911 0.1124965 -0.14031103 -0.48728794 0.29188395 -0.30045715
0.007907408 -0.22961216 -0.079807356 0.023323132 0.086348355 -0.8724921 -0.101298906 -0.24534783
-0.04351503 0.24810615 -0.0744734 0.27065682 0.26554814 0.053781077 -0.01054791 0.2785988
0.08331361 -0.17268142 0.10806314 -0.42351213 0.002359624 -0.10660163 0.6139531 0.11602374
-0.0859017 0.08115193 -0.48691475 0.014062822 0.16356254 1.0290424 0.030298095 0.030298095
0.18601409 0.19811432 0.19811432 -0.08338353 0.44397044 -0.18863755 -0.018408109 -0.112803794
0.06513322 0.25347623 -0.1697631 0.31834978 0.2617296 0.17546362 0.1900561 -0.03819079
-0.012938372 0.043116856 0.043116856 0.49618483 0.19445014 0.13467942 -0.78802425 -0.039145477
-0.17039052 -0.3378494 -0.19178987 -0.030112332 0.28100818 -0.111886986 -0.17249821 -0.0068568094
-0.07793878 -0.27103764 -0.3392247 0.5175131 0.0154221095 0.10679573 0.09547247 -0.0065541747
0.0001472197 0.052245595 -0.8797713 -0.33205846 -0.24931015 -0.27369434 -0.3362064 -0.008875526
0.6998982 -0.37895426 -0.46071088 0.617071 -0.3436153 -0.46260902 -0.2771151 -0.2872705
00000000: 4922 c53e 8176 433e e6f5 b4be 575e 6f3e
00000010: 4f11 383e a51f 983d 9f6a a9bd 130e 71be
00000020: 7a3d 58be c4da 8b3c eb44 b03d 7b72 adbc
00000030: d75b 61bc e2da 53be 7f45 21be 721b 803e
00000040: 0784 07bd 16c2 2dbe 9185 a83d 3c5b 833d
00000050: 1805 31be 3d80 99be 2df4 b33e de96 dd3d
00000060: d385 b824 07ce f9bd 6283 47bd 8b52 c43c
00000070: 64a4 ac3a 2946 263e 9172 c03c 1274 9d3c
00000080: a769 bfbb 0931 3e3e 6a5f 65bd ae01 41bd
00000090: ddcd 70be 61f2 7bbe 0310 4ebe 9499 ad3e
000000a0: e373 f4bc 7d0e 543e a319 26be 6298 e5bd
000000b0: 02e2 88bd 8108 da3d 35b3 cebe fc46 84be
000000c0: b576 c2be 63c6 87be 0f4b 49bf 6d80 76be
000000d0: 86cd e23c bd9d bfbc 8819 1cbd c5fa b63d
000000e0: 6289 04bd 96b8 2bbc 070d d8bd 8641 653d
000000f0: 8641 653d 45d9 53bd 3afa 05be ddee 093e
00000100: 4f11 383e 027d 483e 027d 483e c5cf 4bbd
00000110: 4b0c 06bf 995a eebe ac08 63bd 1a30 2ebf
00000120: f4b5 babd 694b 243d 5bc0 43bc 6008 b23c
00000130: 3533 133c 9e68 113e f5ff 8c3c ba50 b13c
00000140: 174d 783e 1181 4abd c1b5 4b3e b281 593d
00000150: e2cb babe 6dcd 1abe 7925 4bbe 8fc3 f33c
00000160: 41ad a7bd cca1 363b 83e2 2bbf 0fb2 f7bd
00000170: 4924 323e 2667 52be 3080 073d fea2 89be
00000180: 1951 55bf b971 a5be 368f babc a76a 11bc
00000190: 7922 b53d 7922 b53d 14cc 7e3f fc2a 0c3e
000001a0: d973 293e e9f0 e83d 027d 483e 21f2 403e
000001b0: 027d 483e 69d2 e03d ed0c 1e3e b2db d13b
000001c0: c613 94bc 027d 483e 027d 483e e879 4f3e
000001d0: 3d21 8ebe 146a a9bd 00d0 083e da97 823d
000001e0: 5d2e 40be 74db d5bc 12c5 3f3f 892e 72be
000001f0: 58d4 dfbe 5077 bdbd 3fa3 d5bc 930a 663c
00000200: ede0 1ebc 52c0 04bd 9023 29be 34b6 2e3d
00000210: 77d3 24bd e6ba e13d fa6a c4bd d4ba 23be
00000220: b80c 23be bd9d bfbc 4507 9bbd 671d 1a3c
00000230: e7f6 39bb ce2e 11be 5135 e73d e343 f3bd
00000240: 9a1a eabd 1027 1dbe 6aa5 0d3e d065 71bd
00000250: 598b 8ebd 3c11 0ebe 1073 fdbc d1fa 233e
00000260: 0d9a 3dbd 9a37 a43d bc50 703b 03aa e03d
00000270: 0112 00bc 16fd 60be f41e cfbe d585 853d
00000280: 556a 02be 067b 6d3e 3060 2bbe 9164 e63d
00000290: b2ad 0fbe ce7d f9be d071 953e 85d5 99be
000002a0: 138e 013c 731f 6bbe 0a72 a3bd 2710 bf3c
000002b0: 68d7 b03d a45b 5fbf cd75 cfbd 763c 7bbe
000002c0: d13c 32bd 8a0f 7e3e 8385 98bd 8893 8a3e
000002d0: edf5 873e 8c49 5c3d 24d1 2cbc 80a4 8e3e
000002e0: 53a0 aa3d 66d3 30be 3550 dd3d 95d6 d8be
000002f0: eca3 1a3b f551 dabd 082c 1d3f db9d ed3d
00000300: 3bed afbd fc32 a63d e44c f9be c067 663c
00000310: f07c 273e a9b7 833f b633 f83c b633 f83c
00000320: 7a7a 3e3e 7bde 4a3e 7bde 4a3e fcc4 aabd
00000330: 1850 e33e 342a 41be 9acc 96bc ad05 e7bd
00000340: 9164 853d a3c7 813e 61d6 2dbe befe a23e
00000350: 6c01 863e bcac 333e 119e 423e f26d 1cbd
00000360: 77fb 53bc 4d9b 303d 4d9b 303d f00b fe3e
00000370: f01d 473e 67e9 093e f5bb 49bf 0257 20bd
00000380: da7a 2ebe 99fa acbe 9064 44be 23ae f6bc
00000390: 4ee0 8f3e 0125 e5bd 5fa3 30be 16af e0bb
000003a0: 5e9e 9fbd 72c5 8abe dcae adbe bd7b 043f
000003b0: 04ad 7c3c b8b7 da3d 1287 c33d 67c4 d6bb
000003c0: fd5e 1a39 7aff 553d b138 61bf 9103 aabe
000003d0: 294b 7fbe aa21 8cbe 3f23 acbe a76a 11bc
000003e0: 872c 333f 4b06 c2be 4ce2 ebbe 5df8 1d3f
000003f0: 58ee afbe 17db ecbe 08e2 8dbe 1e15 93be

b f8 []
-0.12102548813598879
00000000: 38c9 86c1 86fb bebf
